models/lgbmDIS_student.tflite (tflite, 20312 bytes, 7 tensors)

arith.constant f4 [128]
000000 be 71 6a 3e 22 63 08 bf d2 7b 1a be 99 59 8a 3e
       0.22894952 -0.53276265 -0.15086296 0.27021483
000010 ea 35 7e be 1d fe 26 be 5c 12 47 bf 47 e9 02 bd
       -0.24825254 -0.16307874 -0.7776239 -0.03196075
000020 c0 2d a4 3d 93 13 7b be 84 91 99 3e 12 b1 b4 bb
       0.080165386 -0.24519186 0.29993832 -0.0055142725
000030 05 18 27 bf 61 28 4d 3e 1e e7 e3 be 95 b1 0b 3d
       -0.65271026 0.20034935 -0.44512266 0.034104902
000040 6d e6 01 3e 52 5a 9f be 0a d9 e1 3d 1c 23 aa be
       0.12685557 -0.31123596 0.11027725 -0.3322991
000050 c1 99 10 bd 06 ba 49 be f2 b7 a8 bd 66 15 dd be
       -0.03530288 -0.19699869 -0.0823821 -0.43180388
000060 71 be 38 3e 24 22 1e be 02 c3 31 3d 38 29 ba be
       0.18041398 -0.15442711 0.043398865 -0.36359572
000070 2f 32 a4 bd 3c fa 0f be b4 61 7a bf 4c 5a 9a 3e
       -0.08017384 -0.140603 -0.97805333 0.30147016
000080 40 94 a4 3d b8 59 1b be 25 f9 b4 bd 12 97 fa bd
       0.08036089 -0.15170944 -0.08836583 -0.122358456
000090 93 9b f5 bd d4 a2 3b bf 70 84 75 3c 2b fa bc 3d
       -0.11992564 -0.7329533 0.014985189 0.09227403
0000a0 85 8e f7 bc 3d a4 0f bf 51 38 18 3e ef fb 09 be
       -0.030219326 -0.5610998 0.14865233 -0.13475011
0000b0 65 17 ad bd 3c 62 72 be 2e 1a b0 be 8d c6 2b bf
       -0.08451728 -0.23670286 -0.34394974 -0.6709984
0000c0 1b 9b d4 bd 15 6f 7c 3d 65 11 6b 3e f2 33 67 3d
       -0.103811465 0.061629374 0.22955854 0.056446023
0000d0 d6 39 b1 3c 3a 40 ac be d4 ee 95 bd d1 e1 ac bf
       0.021634024 -0.3364275 -0.073209435 -1.3506414
0000e0 1a 56 e9 3d 0c b1 79 bf 31 d0 a1 bd d9 0d e9 3d
       0.11393376 -0.9753578 -0.079010375 0.11379594
0000f0 06 d0 a6 3d b4 a4 24 bf 33 19 5c be 38 cc 5b 3d
       0.08145146 -0.6431382 -0.21493988 0.053661555
000100 2a 90 bf bd 5a 23 00 be aa 17 15 bd 5a 11 9c be
       -0.09353669 -0.12513486 -0.03639952 -0.30481988
000110 ec 3c 29 3d 34 64 4c 3e 1a 74 fc be 63 4e 62 bf
       0.041317865 0.199601 -0.49307328 -0.8840086
000120 88 bd b5 be 7d 86 ad 3e 40 1c 92 bf 5e ad 20 3d
       -0.35496163 0.3389167 -1.1414871 0.039227836
000130 59 9c 2a bf 08 58 a7 3d 64 2e cc be b6 73 89 bd
       -0.6664482 0.081710875 -0.39879143 -0.06711523
000140 7b d1 62 be c6 56 5e be 56 71 4d bd a6 58 bc be
       -0.22150223 -0.21712789 -0.050156914 -0.36786383
000150 aa 8a 14 bf bf fb e1 3d 5d 1d cf be ee 03 1f be
       -0.58024085 0.11034345 -0.4045209 -0.15528843
000160 78 bb 9d bd 75 45 72 bb dd 8f c2 3d 7e 57 4b bb
       -0.077017725 -0.003696767 0.09500096 -0.0031027491
000170 62 23 05 be 32 64 bb 3d 1f ac 47 bd 3c c0 db 3d
       -0.13001779 0.0914997 -0.04874813 0.10730025
000180 c4 42 fd be 3e e1 33 bf 23 ea 82 be 88 d8 c9 39
       -0.49465 -0.7026557 -0.25569257 0.00038499036
000190 e0 17 a7 bf 4e a8 81 3e 75 ef 95 be 57 e0 c7 bd
       -1.3054161 0.2532372 -0.29284254 -0.09759586
0001a0 5a d1 9d bf 05 b7 10 3c a6 ac f5 3d f4 56 84 bb
       -1.2329514 0.008832698 0.11995821 -0.004038686
0001b0 15 25 3d bd a6 d3 8a 3d 9c a9 07 be 75 c1 b8 be
       -0.046177942 0.0677865 -0.13248295 -0.36085096
0001c0 50 fb 0e bf de 2c 3c bf 8b 34 f9 3d 04 cd 29 bf
       -0.5585222 -0.7350596 0.12168225 -0.66328454
0001d0 c2 e9 21 be e3 d5 7b bf e9 d4 68 bf cf 4e 9d bc
       -0.15811828 -0.9837324 -0.90949875 -0.019202618
0001e0 68 8c b1 3d 9f 7b 8d bf fd 0c 03 3f 79 e8 8e bd
       0.086693585 -1.1053351 0.51191694 -0.069779344
0001f0 20 ce bb 3d 3c ad 6f bf 57 ab da 3d 1c a3 89 bd
       0.091701746 -0.9362371 0.10677212 -0.06720564

arith.constant1 f4 [32]
000000 59 c3 cb 3e e4 bc 42 3e b8 ac e8 3e a8 7f 19 3e
       0.39797476 0.19017369 0.45444274 0.14990103
000010 e7 c9 be 3e a4 af 8c 3e 59 cc 12 3e d1 35 ab 3d
       0.37263414 0.27477753 0.14335765 0.08359874
000020 77 c0 7c 3e 52 bc 08 bb e2 62 1f 3f 33 d0 d4 3e
       0.24682795 -0.00208642 0.6226026 0.41565093
000030 cf 87 69 3d 45 0b 91 3e 36 4c f4 3d 53 6d 05 3e
       0.057014283 0.2832891 0.119285986 0.13029985
000040 88 6d bd 3e dc 5b c0 3d 8c ef d2 3d 2b 97 11 3e
       0.36997628 0.09392521 0.10299596 0.14217822
000050 a5 0e a0 3e 9c 89 d1 3e 49 d1 c6 3d 8c 64 d3 3e
       0.31261173 0.409253 0.09707887 0.4128765
000060 68 1b 65 3c c3 1d 28 3e be d8 05 3f c1 23 27 3e
       0.013983585 0.16417603 0.5228385 0.16322233
000070 2c 98 93 3e d1 6d b7 3e 96 68 77 3e e7 df fa 3d
       0.28827035 0.3582597 0.2416099 0.12249737

arith.constant2 f4 [64]
000000 00 5f 14 be 07 c5 85 3d f3 19 48 bd 70 91 01 3e
       -0.14489365 0.065317206 -0.048852872 0.12653136
000010 33 49 5f 3e 58 15 3e 3e 6c 66 11 bd 1b 37 32 3e
       0.21805267 0.1856283 -0.035498068 0.17403834
000020 60 5c 40 be 9e 8f ad 3c e0 e9 3b 3d f2 c8 90 be
       -0.18785238 0.021186646 0.045877337 -0.2827831
000030 b4 58 bf 3e 74 c7 26 be cc dc 86 3d eb a0 e0 be
       0.37372363 -0.16287023 0.065850824 -0.4387277
000040 ff f5 ec 3c 36 79 85 bd af c8 f3 be ef 6e bd 3d
       0.028925894 -0.0651726 -0.47614047 0.092496745
000050 09 0a c8 3d 47 de 70 3d b1 ab 82 be 2c d3 9e be
       0.09767539 0.05880573 -0.25521615 -0.31020486
000060 ff b7 a1 3e d3 58 95 be 45 e4 f4 3b fb 7a 46 bf
       0.3158569 -0.2916933 0.007473501 -0.77531403
000070 6b 58 28 be 40 8a a5 3e 0f 9d ac be db 73 3e bf
       -0.16439979 0.3233204 -0.33713576 -0.7439553
000080 42 75 88 3d 6d 1a 45 3d 81 c1 5d 3e e9 12 4c 3e
       0.0666299 0.048120905 0.21655847 0.19929089
000090 6e a9 bf be 28 43 2a 3e 47 f9 a0 3d df e5 75 be
       -0.37433952 0.1662718 0.07860046 -0.2401347
0000a0 32 3b 0b bb 0a 0b 87 bd 19 90 11 be d1 ae 26 bf
       -0.0021245 -0.065939024 -0.14215125 -0.651105
0000b0 ff 4c 15 be b2 8a 02 bd 4f 9c 14 bf 37 bb 8b 3e
       -0.14580153 -0.03187055 -0.5805101 0.2729127
0000c0 0a 22 85 3c 29 e0 bc 3d df 89 86 3c b1 1b aa bd
       0.016251583 0.09222443 0.016423164 -0.08306063
0000d0 fd f1 78 bd 7d c6 23 3d eb 23 c4 3d d8 dd 3b 3e
       -0.060777653 0.039984215 0.09577163 0.18346345
0000e0 81 19 be 3d e4 8e 00 3e 0f 95 6a 3c df 2b 97 3d
       0.09282208 0.12554508 0.014317765 0.073814146
0000f0 07 0b 29 3e fa 54 41 3e 18 d2 c5 3d 3c 8a 3a 3e
       0.16508113 0.18880072 0.09659213 0.18216795

arith.constant4 f4 [1, 32]
000000 cf c2 d5 3d 06 9c f4 3e fc bf 8a bd 1e 15 b3 3e
       0.104375474 0.47775286 -0.06774899 0.3497705
000010 fe 64 91 3e ce 3d 59 be 16 3b e2 3e c4 64 b4 3e
       0.28397363 -0.21214983 0.44185704 0.35233128
000020 d7 ec df bd 59 29 24 3d a8 75 87 3e c8 61 ad be
       -0.109338455 0.040078495 0.26456952 -0.33863664
000030 77 0f 48 3e 3c 2a 0d 3e 4d 86 75 be d8 c8 fb bd
       0.1953715 0.13785642 -0.23977013 -0.12294167
000040 00 58 dc 3d be 7a 4c 3e cb 2d ee 3e f5 13 72 be
       0.10758972 0.19968697 0.46519312 -0.23640426
000050 f1 f1 3f be 0e 26 56 be f6 8c b1 be d6 12 c8 be
       -0.18744637 -0.20912954 -0.34677857 -0.3907687
000060 73 67 0c 3c 5b c5 8c be 8c 64 6d be 2c 7d 7c be
       0.008569586 -0.2749432 -0.23182887 -0.24657124
000070 4b a5 87 be 8a 92 ce be bd 8a f4 3e 9b 87 eb 3e
       -0.26493296 -0.40346175 0.477621 0.46001896

tfl.pseudo_qconst i1 [32, 64]
000000 0d c1 15 c3 14 c3 fa fc e0 29 48 41 31 3d f5 08
       13 -63 21 -61 20 -61 -6 -4 -32 41 72 65 49 61 -11 8
000010 db 03 36 cf 14 4a e6 ce 14 38 e8 4a 28 09 36 b1
       -37 3 54 -49 20 74 -26 -50 20 56 -24 74 40 9 54 -79
000020 f7 14 ee 1e ef c1 fa 05 16 e8 47 2b 34 1b d2 c8
       -9 20 -18 30 -17 -63 -6 5 22 -24 71 43 52 27 -46 -56
000030 2a 27 58 14 d1 2f 21 c7 b5 09 a8 dc 97 09 d6 81
       42 39 88 20 -47 47 33 -57 -75 9 -88 -36 -105 9 -42 -127
000040 b5 19 ca b0 b8 96 75 7f 85 c5 64 3c f2 2b a0 67
       -75 25 -54 -80 -72 -106 117 127 -123 -59 100 60 -14 43 -96 103
000050 3a 6a 42 dc 8f 3a ce 63 6d 27 eb 6b cf 14 3d 27
       58 106 66 -36 -113 58 -50 99 109 39 -21 107 -49 20 61 39
000060 63 3a 29 9e d7 c4 39 50 62 dd b6 5a d8 aa 38 f0
       99 58 41 -98 -41 -60 57 80 98 -35 -74 90 -40 -86 56 -16
000070 56 6b 05 0f c2 ed 6c ba 9f 19 0e 86 3d b5 cf 05
       86 107 5 15 -62 -19 108 -70 -97 25 14 -122 61 -75 -49 5
000080 e3 c8 bc 14 d8 06 d1 d3 e6 04 bb 34 42 e6 c0 ea
       -29 -56 -68 20 -40 6 -47 -45 -26 4 -69 52 66 -26 -64 -22
000090 c1 c7 ce da dd cb 34 de 0a c4 b1 2f ea 2c 14 fb
       -63 -57 -50 -38 -35 -53 52 -34 10 -60 -79 47 -22 44 20 -5
0000a0 3f e0 00 21 1b f3 18 10 ed cb c7 16 d4 d7 ee df
       63 -32 0 33 27 -13 24 16 -19 -53 -57 22 -44 -41 -18 -33
0000b0 e1 b5 e7 81 de ce ba 1b 0f e3 47 cf bb de 25 d7
       -31 -75 -25 -127 -34 -50 -70 27 15 -29 71 -49 -69 -34 37 -41
0000c0 e2 1a 09 d6 e0 31 32 2b 34 12 7f cf 1d ec e0 d8
       -30 26 9 -42 -32 49 50 43 52 18 127 -49 29 -20 -32 -40
0000d0 bb cd e9 ed d7 68 30 d7 ea f8 55 17 de e1 ca cb
       -69 -51 -23 -19 -41 104 48 -41 -22 -8 85 23 -34 -31 -54 -53
0000e0 35 49 ac a8 3f 04 2d e1 6d 46 ce ed 35 f4 d4 e9
       53 73 -84 -88 63 4 45 -31 109 70 -50 -19 53 -12 -44 -23
0000f0 33 e0 e9 37 e4 1a c1 e2 20 54 fd dd e2 fc 31 ab
       51 -32 -23 55 -28 26 -63 -30 32 84 -3 -35 -30 -4 49 -85

tfl.pseudo_qconst1 i1 [64, 128]
000000 27 f4 21 25 21 3f 20 f6 b0 d8 b4 24 d6 34 29 ee
       39 -12 33 37 33 63 32 -10 -80 -40 -76 36 -42 52 41 -18
000010 7f 08 f7 db e2 27 fd d6 3a ee 05 01 ec b6 ee 18
       127 8 -9 -37 -30 39 -3 -42 58 -18 5 1 -20 -74 -18 24
000020 21 1d f5 09 35 14 f7 a6 29 e8 ec eb 1e 30 e2 3d
       33 29 -11 9 53 20 -9 -90 41 -24 -20 -21 30 48 -30 61
000030 99 ef b8 12 19 12 e2 13 fb d2 1b e9 19 d5 10 62
       -103 -17 -72 18 25 18 -30 19 -5 -46 27 -23 25 -43 16 98
000040 d6 c8 54 1f 49 4b 3f ff c9 6c 0d d8 c9 31 05 ec
       -42 -56 84 31 73 75 63 -1 -55 108 13 -40 -55 49 5 -20
000050 f6 37 41 f3 23 33 17 ee 2d 16 3a 0b f9 27 d6 bd
       -10 55 65 -13 35 51 23 -18 45 22 58 11 -7 39 -42 -67
000060 d2 dc ee 3d d0 3d e0 cf 4c 18 1b de bd 24 34 9e
       -46 -36 -18 61 -48 61 -32 -49 76 24 27 -34 -67 36 52 -98
000070 29 1e 06 e6 1d 16 24 ff 01 bb f9 1d 1b ee 4a e3
       41 30 6 -26 29 22 36 -1 1 -69 -7 29 27 -18 74 -29
000080 13 de f0 00 01 01 f2 e7 a4 e8 97 e5 ec d2 0a db
       19 -34 -16 0 1 1 -14 -25 -92 -24 -105 -27 -20 -46 10 -37
000090 32 29 ee 0e ea e6 35 e2 f7 27 0e 0f ff 03 2c ed
       50 41 -18 14 -22 -26 53 -30 -9 39 14 15 -1 3 44 -19
0000a0 e3 1c e8 f3 08 ff ee 15 1b bb 11 1f 29 08 aa f6
       -29 28 -24 -13 8 -1 -18 21 27 -69 17 31 41 8 -86 -10
0000b0 fd f7 a6 fa f2 00 1e e1 1b eb fb ef e1 f1 ec 7f
       -3 -9 -90 -6 -14 0 30 -31 27 -21 -5 -17 -31 -15 -20 127
0000c0 22 d7 3d 08 3a f2 f6 ee f8 78 da e8 13 22 ef cb
       34 -41 61 8 58 -14 -10 -18 -8 120 -38 -24 19 34 -17 -53
0000d0 de fe 1f 07 04 18 ec df 40 dc ea e5 1e f6 df fe
       -34 -2 31 7 4 24 -20 -33 64 -36 -22 -27 30 -10 -33 -2
0000e0 e0 c2 eb af 10 26 ec cd 0a 00 19 e9 ce ef 03 b4
       -32 -62 -21 -81 16 38 -20 -51 10 0 25 -23 -50 -17 3 -76
0000f0 1e ff a5 f7 12 11 d3 19 d8 e8 3b fb f5 f3 1a f4
       30 -1 -91 -9 18 17 -45 25 -40 -24 59 -5 -11 -13 26 -12

sequential_1/dense_1/MatMul i1 [128, 30]
000000 f1 90 ae 1b 00 dd 81 cb 03 c7 00 b9 e9 ad bd 05
       -15 -112 -82 27 0 -35 -127 -53 3 -57 0 -71 -23 -83 -67 5
000010 fb 20 bb ca db d1 f3 02 2b fd a4 03 38 cf e6 0b
       -5 32 -69 -54 -37 -47 -13 2 43 -3 -92 3 56 -49 -26 11
000020 e4 ec 01 fe 14 08 fc 02 00 10 16 f1 f5 fb 81 00
       -28 -20 1 -2 20 8 -4 2 0 16 22 -15 -11 -5 -127 0
000030 16 0a 10 e5 fa fe fa 05 e1 f3 06 02 12 d2 2e 66
       22 10 16 -27 -6 -2 -6 5 -31 -13 6 2 18 -46 46 102
000040 c7 af e7 1b 03 0b ce e8 0d f7 be 15 e5 81 96 20
       -57 -81 -25 27 3 11 -50 -24 13 -9 -66 21 -27 -127 -106 32
000050 83 1f ef f0 9d 1b 26 ef 93 f1 36 67 10 12 05 df
       -125 31 -17 -16 -99 27 38 -17 -109 -15 54 103 16 18 5 -33
000060 e7 ea 18 d1 00 d0 ac 1d ff 0d 7a f5 0c 1a 7f fc
       -25 -22 24 -47 0 -48 -84 29 -1 13 122 -11 12 26 127 -4
000070 ed d6 0e cd e2 c2 46 16 1b 2d d1 00 02 d8 bd 00
       -19 -42 14 -51 -30 -62 70 22 27 45 -47 0 2 -40 -67 0
000080 d7 0b fc f1 7f 03 1d 04 1f e1 be fd ef f5 f8 ff
       -41 11 -4 -15 127 3 29 4 31 -31 -66 -3 -17 -11 -8 -1
000090 e3 22 16 ef ec e3 f0 a1 fc c7 07 f5 53 fa f3 ac
       -29 34 22 -17 -20 -29 -16 -95 -4 -57 7 -11 83 -6 -13 -84
0000a0 ee ab 15 e4 17 cd 03 a4 7f 01 f5 bb 01 07 c6 fe
       -18 -85 21 -28 23 -51 3 -92 127 1 -11 -69 1 7 -58 -2
0000b0 b2 df e4 f7 0e 0c d3 cf fc 13 d4 bf 46 22 01 16
       -78 -33 -28 -9 14 12 -45 -49 -4 19 -44 -65 70 34 1 22
0000c0 7f df ca 03 be 01 f9 b9 f6 c5 e2 0d 13 12 86 f0
       127 -33 -54 3 -66 1 -7 -71 -10 -59 -30 13 19 18 -122 -16
0000d0 5a f0 b0 fe e8 e6 0e 13 c0 13 a0 16 f5 7f 43 9b
       90 -16 -80 -2 -24 -26 14 19 -64 19 -96 22 -11 127 67 -101
0000e0 81 fc 06 2f ef d1 d8 ca e5 3d 44 f0 d2 0b 4b 04
       -127 -4 6 47 -17 -47 -40 -54 -27 61 68 -16 -46 11 75 4
0000f0 b4 25 f3 c3 e7 19 81 1c f1 fd e1 fa d4 e3 f4 12
       -76 37 -13 -61 -25 25 -127 28 -15 -3 -31 -6 -44 -29 -12 18
